checkpoint/checkpoints_with_energy.pth (torch, 263650 bytes, 48 tensors)

shallownet.0.weight f4 [16, 1, 3, 3]
00000000: 5c82 a13e 4247 7d3e 3a04 a53e a300 02bd
00000010: 1a2f 91be 216f 61be b45d c1bd 0a18 223d
00000020: 1966 e9bd 8515 50be aa01 bfbc 8631 583e
00000030: d742 8d3e bb2d 2cbe e36a 41be 0131 75bc
00000040: 53d2 073e 9522 213e f30e 03be d707 e53d
00000050: f68c 5ebd 4ff0 a4bc 06f3 8bbe d07d 793e
00000060: 1168 54be edbb c53d 9ce5 2cbe 355a 85be
00000070: f064 89bc 1cf0 ee3d 8fcc 9fbe ed31 2a3d
00000080: a435 eebd 1cb0 86bd fd20 0cbe c13b 08bd
00000090: a835 8f3e b510 abbe 78ac 2dbe 2395 8a3e
000000a0: 2287 02bd 8be3 a1bd 72d7 ce3d 2aeb 1dbe
000000b0: 9e03 013e 842f 49be c1da d2bd 4b68 833e
000000c0: a1ad 163d d727 8bbe ddeb 4d3e 7e49 61be
000000d0: 07bc f0bc 05fe 0aba c915 1ebe 1b0b 193e
000000e0: 8dda 0bbd ffdf 3f3e 36d4 243e 2c4d 85be
000000f0: 639c 823e 1cd7 383b 862c 813e a50f 4c3e
00000100: e2e2 dfbd 6a4e a4bd 7cc4 06be b728 2bbe
00000110: 66e4 7a3e db41 993e b475 0f3e 76c6 923e
00000120: 4f92 c73d fe7c 3b3d f0e8 04be 629b 9f3e
00000130: fa9b 77be f20f 813e d06f 29bd 0d0b 09be
00000140: 5f89 913b b9ab 553e 09ca a0be 1137 75be
00000150: 8f82 82bd 7c24 bcbe b333 373d f852 6fbe
00000160: 4e68 a8be fc3c d5bd e37c 38be 71b4 64bc
00000170: e96e 553e 8aa5 9fbd 38cb 913d 5006 223e
00000180: 77e5 bd3d d75e ab3c 5028 323d f2a6 533e
00000190: 1c89 92be 1b0e 0cbe ff78 983e 6906 94bd
000001a0: 73e0 4e3e e4c6 8bbe 66ad b33d 6076 9bbc
000001b0: 308d a9be 6e44 503d 37ad 21bd f91f a9be
000001c0: f6e6 e1bd cc12 893e a7cf 993d 23dd 4dbe
000001d0: 0d80 31be 92fc 22be 1e34 37be c0bf 663d
000001e0: 45fe 27be 9b24 6d3e 6b45 2d3e 134c 7c3e
000001f0: 6597 7a3a 9e5e 983e cb21 8fbe 79e0 39be
00000200: 164e 4cbe 34c0 1e3e 033c a3be d824 31be
00000210: 3c84 083e 6838 9f3e cb74 4f3e 010a 063e
00000220: b15d 73be 256a d83d 0243 02be 1680 8c3c
00000230: 3169 27bd 1538 9c3e 60fb 5b3e 66cd 253d
0.3154477 0.24734214 0.32229787 -0.03173889 -0.28356248 -0.22015049 -0.094417006 0.039573707
-0.11396427 -0.20320709 -0.023316223 0.21112642 0.27590057 -0.1681432 -0.1888843 -0.014965297
0.13263826 0.15735848 -0.12798671 0.11183136 -0.05433365 -0.02013412 -0.2733385 0.243644
-0.20742823 0.096549846 -0.16884464 -0.26045385 -0.016771764 0.11666891 -0.31210753 0.04155152
-0.11631325 -0.06576559 -0.13684459 -0.03326011 0.27970624 -0.33411184 -0.16960323 0.27066907
-0.031867154 -0.079047285 0.10099687 -0.15421739 0.12599036 -0.19647032 -0.1029563 0.25665507
0.03678668 -0.27178833 0.20109506 -0.22000691 -0.029386533 -0.0005302134 -0.15437998 0.14945643
-0.034143973 0.18737791 0.16096577 -0.2603544 0.2550994 0.0028204387 0.2522928 0.19927843
-0.10931946 -0.08022769 -0.1316089 -0.1671475 0.2450119 0.29933056 0.14009744 0.2866704
0.09744703 0.0457735 -0.12979484 0.31173235 -0.24180594 0.25207478 -0.0413664 -0.13383122
0.0044414247 0.20866288 -0.3140414 -0.23946787 -0.06372558 -0.36746585 0.04472704 -0.23371494
-0.32892078 -0.104120225 -0.1801639 -0.013959036 0.2084309 -0.07795246 0.07118839 0.1582272
0.092722826 0.020919247 0.043495476 0.20669153 -0.2862023 -0.13677256 0.29779813 -0.07227785
0.20202808 -0.2730018 0.087733075 -0.018977344 -0.3311553 0.05084651 -0.03947183 -0.33032206
-0.110303804 0.26772153 0.0751031 -0.20103888 -0.17334004 -0.1591666 -0.17890975 0.05633521
-0.1640559 0.23158495 0.16921012 0.24638395 0.00095593027 0.29759687 -0.2795547 -0.18152036
-0.19951662 0.15503007 -0.31881723 -0.17299211 0.13331693 0.31097722 0.20259397 0.13089754
-0.23766209 0.105671205 -0.12720874 0.01715092 -0.040871803 0.30511537 0.2148261 0.040479086

shallownet.0.bias f4 [16]
00000000: 10e3 a8be 2026 8a3e cf2f 6a3e 12bf 073e
00000010: 63d8 aebe 2b41 61be ed00 3e3e 7bd1 a6be
00000020: ee23 1c3e 9912 d43c 4965 9b3e 704e e63d
00000030: 2425 2d3e 5a17 023e 1d3c 21be 404e 3ebe
-0.32985735 0.26982212 0.228698 0.13256481 -0.34149465 -0.21997516 0.1855504 -0.32581696
0.15248081 0.025887774 0.30350712 0.112454295 0.169087 0.1270422 -0.15745588 -0.18584538

shallownet.2.weight f4 [16]
00000000: 8162 7e3f 370e 813f ed0c 803f a732 803f
00000010: 73ab 7c3f ebaf 803f 898e 7f3f b80f 7e3f
00000020: 565f 813f a567 7d3f e06d 803f 52dc 823f
00000030: 8a7b 7e3f c7f5 813f dba0 7f3f 3cc5 7c3f
0.99369055 1.0082463 1.0003945 1.0015458 0.9869911 1.0053686 0.99826866 0.99242735
1.0107219 0.98986274 1.0033531 1.0223486 0.99407256 1.015313 0.9985482 0.98738456

shallownet.2.bias f4 [16]
00000000: d768 523d e4f8 c63a cc98 97bc b9cc 92bc
00000010: ed87 5b3b d834 52bb 1f66 c53c fa21 b03c
00000020: b178 ce3c 58c1 84bc 3798 d33b c0f8 cc3a
00000030: c1f6 95bc 7e57 a73c 8a0f 15bd 4cd8 4a3b
0.051369514 0.0015180376 -0.018505476 -0.017919885 0.0033497766 -0.0032074954 0.024096547 0.021500576
0.025204035 -0.016205475 0.0064573544 0.0015638098 -0.018306138 0.020427462 -0.036391772 0.0030951677

shallownet.2.running_mean f4 [16]
00000000: a138 ce32 1641 8b3e 1123 653e ec69 fc3d
00000010: b0bc 8a35 dd9a 3c35 7318 453e e259 7f36
00000020: a525 1e3e 586e 8a3c 1471 9d3e 90af e63d
00000030: 5a67 233e d175 083e 89c4 dd34 cc8d 7937
2.4007308e-08 0.27198094 0.22376658 0.123248905 1.0336717e-06 7.0260813e-07 0.19247608 3.805028e-06
0.15444048 0.01689832 0.30750334 0.11263955 0.15957394 0.13326193 4.1307456e-07 1.4874571e-05

shallownet.2.running_var f4 [16]
00000000: 7677 0130 2757 2638 470f 1639 8984 b439
00000010: 1ef6 9533 cc56 0733 582b 9839 8106 8434
00000020: b353 8638 6432 a038 f38a 2839 00ab 5f38
00000030: 00e7 d939 b968 ad39 c784 4732 1db8 9135
4.709969e-10 3.965865e-05 0.00014310806 0.00034431022 6.9831216e-08 3.1511078e-08 0.00029023993 2.4591648e-07
6.405208e-05 7.6387805e-05 0.00016073491 5.33266e-05 0.00041561574 0.00033075156 1.1613515e-08 1.0856926e-06

shallownet.3.weight f4 [32, 16, 3, 3]
00000000: b0b1 d6bd b7a0 36bd 3f69 2cbd 6d47 ccbc
00000010: c40f cebc 251f 5ebb d084 59bc cea0 c2bd
00000020: f718 13be 43c0 27bd 5469 bc3c 2690 8ebd
00000030: d204 a8bd b462 bdba 7eba 213c c850 56bd
00000040: a720 673c abe4 233d 35b2 8abd 0ac1 fdbc
00000050: d640 303d 8ebc 993d c706 89bd 0df3 68bd
00000060: 1495 24bd a9e4 3abd fea1 87bd 3dee 7e3d
00000070: 0bfd c4bc 492a 8abd d63b 79bd 9796 a1bd
00000080: d352 cdbd 6969 e83b 8d8c c83b a2d0 113d
00000090: 647b 8e3d 452a 7e3d 0554 973d f5ce fabc
000000a0: dfc4 47bd 382b 87bb 4439 5dbc cb8e 08bc
000000b0: 8d62 373b 8338 e5bc 178e 86bd fcb2 e8bc
000000c0: d28d a43c a60d 223d 676c 89bd 435c a9bd
000000d0: 2d31 79bc 194d d1bc c494 bdbc 6607 86bd
000000e0: b560 053d 0c41 22bc efed 973d 90ba 4fbd
000000f0: d054 a1bd ab01 a03b 3446 d23c 542e 2e3d
00000100: 4dcc b2bc 7b79 833d 23ae 62bd 7c56 8fbd
00000110: be60 59bd d9bc 38bd 98fe 0f3d b196 833d
00000120: 9b53 943d ae82 fabc b01b bcbb 90a9 75bc
00000130: 7357 0e3d 20da 90bc 485f 06bd 9c39 8b3c
00000140: 8620 32bd 1c48 8d3d 3a03 63bd ece7 6abd
00000150: 3a95 ceba 4b76 14bd d788 a2bc 2168 683d
00000160: 121f dc3c dc07 7c3b 5bb4 89bd 9bc6 54bd
00000170: 519a 09bd bfc6 993d 4345 903c 13c7 14bc
00000180: 4b2b a43d 843e 583d 231a 99bc fa9f 3bbd
00000190: 3bc8 bb3d 56f1 ebbc 0643 653c b86a 763d
000001a0: 20fa 673d 9375 1ebd 18fc d83b 16d1 d33c
000001b0: 61e7 503d f00c 88bd e141 9bbd a80b 77bd
000001c0: 227d 4a3d effa cc3c 6acd 143d c25f 6cbd
000001d0: e820 aabd f711 843c 6374 57bd 64c4 9dbd
000001e0: f2e6 88bd 0284 d6bc 1e05 62bc 3594 71bd
000001f0: 57ce d4bc e1e2 a6bc 28a6 943d 6d8b d7bc
00000200: fd3b 98bc fc7b 613d 817b 1dbd 39e1 dbbb
00000210: 4877 25bd eba7 223d 15d4 623d f13d 193d
00000220: 881b 40bd a0c8 aa3c f1a2 5cbd 9a08 7fbd
00000230: f550 953d 8019 7c3d 2ec9 c8bc 0217 1b3d
00000240: f95e bbbd 807d eabc fbda 3ebd 6303 d2bc
00000250: 0fb5 8bbd 4f51 c7bd 9898 5ebe deee aabd
00000260: 9322 83bd fc0d 79bd 3eca 98bb 826d 20bd
00000270: 34c2 fcbc 056d bcbb ac52 e9bc 3a4f 6b3d
00000280: fa77 b5bd aba1 813d 9c0f e7bb 8ac6 a33d
00000290: b3c3 843c 6bdf 853d dfdf 90bd ba4d 113d
000002a0: f540 733c d8c5 723d 42e9 563d cfd8 b63d
000002b0: 9bda 573d b304 9f3d f8b2 703c 706f 843d
000002c0: c880 013c 0cc3 98bd e705 67bc e10a 49bd
000002d0: acde 1a3c 8757 08bd 71bc 6dbd 35e8 78bd
000002e0: 6d52 6dbd fdfe 853d 53b3 87bc 43ab 093d
000002f0: 40ce 27bd 3abc 1a3d 18d6 8abd 3c6d 053c
00000300: 50e6 55bd 82bc a23d 6145 5ebd 93f3 cc3d
00000310: b6a1 033d 261a 123d 7805 b7bd f602 a03d
00000320: d606 33bd b0d7 b63c 829f cbbc 2262 033d
00000330: 2de1 573d e26e 16bc 288d 44bd 10e4 8cbd
00000340: 3bf6 883d 65b8 723c a857 adbd 8361 3e3d
00000350: e614 213d a28f e73c 0425 8f3c c095 a23c
00000360: 18e1 a1bd 11d8 2bbd 793a 5639 596b f03c
00000370: c1cd 4abd b6eb ccbc 73ae 3bbc e7b1 eb3c
00000380: 5c2c e1bc 538d 7e3d dca7 95bd 8997 c63c
00000390: ed32 83bd 5e45 863c 6c31 48bd f7aa 2d3d
000003a0: 4915 a0bd 32f2 8b3d bb3a 913d 8ee1 cc3c
000003b0: d153 8f3d 4c0d 9bbd 101f 4f39 aa71 90bd
000003c0: 04ee a13d 1488 a33a f740 413d beef eb3a
000003d0: 13e5 a23c 3c0e 923d 8a2a 2bbd 780f bd3d
000003e0: f7e4 a2bd 2a05 16bc 95e9 3ebd bd07 debc
000003f0: 7ba1 9b3d 2296 1bbd 643c 2ab9 9c50 973c
-0.1048311 -0.044586863 -0.042092558 -0.024936402 -0.025154002 -0.0033893075 -0.013276294 -0.09503327
-0.14364992 -0.04095484 0.022999443 -0.06961088 -0.082040444 -0.0014448971 0.009871123 -0.052323133
0.014106906 0.040012997 -0.067722715 -0.030975837 0.043030582 0.07506667 -0.06690746 -0.056872416
-0.040181234 -0.045628224 -0.066226944 0.06223892 -0.024046442 -0.067463465 -0.06084808 -0.07890051
-0.10025563 0.007092644 0.0061202706 0.03559936 0.06957129 0.06205203 0.07389072 -0.030616263
-0.048771735 -0.004125025 -0.013502423 -0.008334826 0.0027982325 -0.027981048 -0.0657007 -0.028405659
0.020087156 0.039563797 -0.06710129 -0.08269551 -0.015209478 -0.025549458 -0.023142226 -0.0654438
0.03256293 -0.009903204 0.07418429 -0.05071503 -0.07877505 0.0048830113 0.025668241 0.04252465
-0.021825934 0.06419655 -0.05534185 -0.069989175 -0.053070776 -0.045101974 0.03515491 0.064252265
0.07242509 -0.030579891 -0.0057406053 -0.01499404 0.034751367 -0.017682135 -0.03280571 0.016995244
-0.043488048 0.068985194 -0.055423 -0.057350084 -0.0015761026 -0.036245625 -0.019840641 0.05673993
0.026870284 0.0038456833 -0.06723853 -0.051947217 -0.033594433 0.07508611 0.017611152 -0.009080666
0.0801607 0.052793995 -0.01868922 -0.045806862 0.0916905 -0.028801601 0.01399303 0.06016037
0.056635022 -0.038686346 0.006621849 0.025856536 0.05100191 -0.06643093 -0.07580925 -0.06031385
0.049435742 0.025021998 0.03632871 -0.05770851 -0.083070576 0.016121848 -0.05260123 -0.07703474
-0.06684674 -0.026185993 -0.013795165 -0.058979232 -0.025977297 -0.020371856 0.07258254 -0.0263116
-0.018583292 0.05504988 -0.03844786 -0.0067101982 -0.04039696 0.03971092 0.05537804 0.037412588
-0.046901256 0.020847619 -0.05386633 -0.062264062 0.07290832 0.061547756 -0.024509992 0.03786374
-0.09148974 -0.028624296 -0.046595555 -0.02563638 -0.068216436 -0.09732305 -0.21737897 -0.083463416
-0.06403079 -0.060804352 -0.004662781 -0.039166935 -0.030854322 -0.005750301 -0.028481804 0.057448603
-0.08860774 0.06329664 -0.0070514213 0.07996853 0.016206598 0.06536754 -0.0707395 0.035474516
0.01484703 0.05927071 0.052468546 0.08928072 0.052698713 0.07764568 0.014691107 0.064665675
0.007904239 -0.07459077 -0.014100528 -0.04908264 0.009452503 -0.033286598 -0.05804104 -0.060768325
-0.057939935 0.06542776 -0.016565 0.033610594 -0.04096818 0.037777163 -0.067791164 0.008143719
-0.052221596 0.07946111 -0.054265384 0.100073956 0.03213664 0.03566947 -0.0893659 0.07813065
-0.04370769 0.022319645 -0.024856333 0.03207601 0.05270498 -0.00918171 -0.04798618 -0.06879437
0.0668759 0.014814471 -0.08463985 0.046479713 0.03932657 0.028266732 0.017473705 0.019846797
-0.07904261 -0.041954104 0.00020430413 0.029348062 -0.04951263 -0.02501474 -0.011455166 0.028771354
-0.027486973 0.062146496 -0.07307407 0.02424218 -0.06406198 0.016390499 -0.048875257 0.042399373
-0.0781656 0.068333045 0.0709128 0.025009897 0.069984086 -0.075708956 0.0001975263 -0.0705293
0.07906726 0.0012476468 0.047181096 0.0018000526 0.019884622 0.07131621 -0.041788615 0.09231466
-0.07953828 -0.009156505 -0.04660948 -0.0271033 0.07599159 -0.037984975 -0.0001623496 0.018471055

shallownet.3.bias f4 [32]
00000000: 4888 81bd 6484 8c3c 6078 383d d4a0 99bc
00000010: 76e9 ff3c d6d4 e8bc 6c21 383d 59bf 51bd
00000020: 13e8 46bd 95cc d03c 68c0 b4bc fc0a 2abd
00000030: 363d 05bd ee7f c83c ab93 153c c2fe f33c
00000040: c4bc 6abd 0260 953d 50ec 153d 8ae0 36bd
00000050: 4f2b 733d 1291 a9bb 4cc5 043d 05e2 49bc
00000060: b3e3 b33d 8386 47bd ac7e 59bc 5d30 373d
00000070: 461b 073d f87e 57bc a693 85bb 865f db3b
-0.06324822 0.017152973 0.045036674 -0.018753447 0.031239253 -0.0284218 0.04495375 -0.051207874
-0.048561167 0.025488177 -0.022064403 -0.04151438 -0.03252908 0.024475064 0.009129445 0.029784564
-0.057308927 0.07293703 0.03660232 -0.04464773 0.059367474 -0.0051747644 0.03241472 -0.012321954
0.087836646 -0.048712265 -0.01327483 0.044723857 0.032984994 -0.01315283 -0.004076439 0.006694737

shallownet.5.weight f4 [32]
00000000: ad15 7f3f f5f9 7e3f a192 803f 3094 833f
00000010: cdc7 853f 73ea 7e3f 408f 793f 2ed5 7c3f
00000020: 5023 853f 6ce0 793f bcd8 7e3f 6306 803f
00000030: fab2 7b3f 6966 813f fcef 7c3f 192a 823f
00000040: 4429 7c3f b4f5 7d3f 5201 763f 474f 7d3f
00000050: daf3 803f e96c 7d3f 7d03 7e3f 3a4f 7d3f
00000060: 28f7 7e3f b0c2 823f 8645 7d3f 470c 7d3f
00000070: 6d22 7c3f a387 7e3f ffd7 7f3f f05b 7c3f
0.9964245 0.99600154 1.0044748 1.0279598 1.0451599 0.9957649 0.9748421 0.98762786
1.0401402 0.97608066 0.9954946 1.0001949 0.9831997 1.0109378 0.9880369 1.0169097
0.98500466 0.9920304 0.96095765 0.9894909 1.0074418 0.9899431 0.9922407 0.98949015
0.9959588 1.0215664 0.9893421 0.9884686 0.9849003 0.99425715 0.9993896 0.98577785

shallownet.5.bias f4 [32]
00000000: 084b 093d d607 1e3c c42d d1ba 0d6b 8aba
00000010: 8bb4 83bc 30fd 013e 4ad5 293d 864f b63c
00000020: 7053 fe3b ac6a dd3c df94 353c 602b 533d
00000030: 883f a93c 0062 0d3d 9031 743d 96bd c93c
00000040: b319 673a aabf 7d3c 4769 5a3d 2ce0 48bd
00000050: 7103 00bc 9af6 f4bc 41f9 6b3b 1fc9 73ba
00000060: 3e09 fe3c 109d bbbb 9697 9e3c 8b00 733c
00000070: 679d 4a3d 5dc8 fe3c 2a5d d3bb 244b 823b
0.03351882 0.009645423 -0.0015959074 -0.0010560468 -0.0160773 0.1269424 0.041463174 0.022254717
0.0077614114 0.027028404 0.011082857 0.051555037 0.020660177 0.03451729 0.05961758 0.024626534
0.000881578 0.015487591 0.053323057 -0.049041912 -0.0078133205 -0.029902745 0.0036006721 -0.0009299684
0.031010266 -0.0057255104 0.019359391 0.014831672 0.049466517 0.0311014 -0.006450315 0.0039762426

shallownet.5.running_mean f4 [32]
00000000: 7ea6 b53d 5a59 053e a671 1d3e 0181 af3d
00000010: 5169 e23d 8bb1 9d3d 717b 3f3e f682 153d
00000020: 9b36 603d cea7 713d d781 ad3d 52b6 de3d
00000030: 27a9 323e c5ec 213e b748 173e 5dcd fe3d
00000040: 47f8 603e 8892 003e b514 353e 573f 763d
00000050: 298a 593e c1b3 9a3d b5e8 863d b730 8a3d
00000060: 8e87 283e 0291 4b3e 2ea8 983d 63bb 243e
00000070: 91a6 bc3d 31ca ac3d fbce 423e 2486 1c3e
0.088696465 0.13022366 0.15375385 0.085695274 0.11055244 0.07699879 0.18699433 0.036501847
0.054739576 0.05899792 0.084720306 0.108746186 0.17447339 0.15812977 0.14773832 0.12441514
0.2196971 0.12555897 0.1768368 0.060119 0.2124411 0.075538166 0.06587354 0.06747573
0.1645796 0.19879535 0.07453953 0.16087107 0.092114575 0.084370025 0.1902427 0.15285546

shallownet.5.running_var f4 [32]
00000000: 469f 013e f9c0 1e3c 074c 5a3c a41e b73b
00000010: e046 ee3b 2678 bb3c a7e5 473e 89c3 743c
00000020: 8642 703b fdf0 0d3d 36b1 0e3d 3982 f83d
00000030: e488 523e 8d6e b03c 82f5 753e ae2c b43d
00000040: ad32 ca3e 0c46 ed3d a1ae 853e 67dc fc3b
00000050: 8b05 de3c 5eef be3c b11c 4c3d fac2 243d
00000060: 3fd3 af3d 2726 dc3c 1ae0 503d bb70 273e
00000070: 305b db3d 827b 4d3d af98 dd3c 89bb dc3c
0.12658414 0.009689563 0.01332379 0.0055883694 0.0072716326 0.02288444 0.19521199 0.014939197
0.0036660745 0.034653652 0.03483697 0.12134213 0.20560032 0.02153709 0.24019435 0.087975845
0.39491788 0.11585626 0.26109794 0.0077167037 0.027102252 0.023307499 0.04983205 0.040225007
0.08585214 0.026873661 0.05099497 0.16351597 0.10710752 0.050166614 0.027050344 0.026944892

shallownet.6.weight f4 [32, 32, 2, 2]
00000000: 70d3 823c 2915 3bbd 947b 6e3c 4a27 df3c
00000010: 8223 42bd 4730 13bd 4b94 063d 29d2 74bd
00000020: b903 923c 571e 58bd 34e6 65bb d81d 8d3d
00000030: 1ad4 96bd 53f3 cdbd b3db 9a3b fd75 f83b
00000040: 0adf 933d 9ffd 33bc f440 be3d f613 c7bd
00000050: 6f83 a53d 0217 cbbd 6076 55bd cfbf 0a3c
00000060: 03fe b3bd 2d7d 023d 048c a43c d907 acbc
00000070: be94 743d aa26 71bc 5a6c 323d 6679 053d
00000080: d7b7 9e3d f447 6cbd 5f54 a1bd 2e3d 6f3d
00000090: 202c acbd 9821 b2bc 43ef 90bd c8ef 813d
000000a0: de73 24bb ecab 93bd e5c6 6bbb b29b 38bc
000000b0: 0343 54bd f464 713c d219 803d 8336 ed3c
000000c0: b9d3 e3bc a051 48bd 6807 853c 58e9 67bd
000000d0: ce71 0f3d 3276 22bc 9198 163d 3afd 05bd
000000e0: 10dd 83bd b722 263d 258d dfbc 71f1 32bd
000000f0: 4b03 b13c 4701 4bbd dc7c f0bc 199c 853d
00000100: 6d7a 39ba 954a f43a f4b2 32bd 28d8 e1bb
00000110: f0c6 c4bd e14e a8bd bf85 243d d216 b2bc
00000120: 17f5 743d b575 6f3d 4475 853d 562f 91bd
00000130: 2154 90bd 2082 403d f83f a33d 491e 753d
00000140: 4fda 53bd d24a b03d 8032 6e3d 505c 28bd
00000150: d828 9bbc 83cb 5d3d 5dd9 12bd f249 5fbb
00000160: 2fd9 073d f509 113d 8870 2ebd ee3b 81bc
00000170: c1e3 dcbc 03ba 343d 81e1 86bc b312 2dbd
00000180: 7e5d 07bd dcd0 b1bd 365a 1dbd 2760 903d
00000190: 444c aabd 1580 25bd 5095 2abc 27d4 89bd
000001a0: afb9 5a3d 9c34 97bc 1f13 84bd f115 82bd
000001b0: 0487 953d 891b 37bd b49c 37bd 920e 12bd
000001c0: 5bf0 263c 4bee 803d ea31 313d 1238 433c
000001d0: 1b1f 94bd 2500 9e3d 563a 94bd ea7e 053d
000001e0: 5da5 e5bc cb56 a3bd 03cd a0bd 4d0a d9bb
000001f0: e35c 703d 3947 173a 1dde 85b9 a7a1 9c3b
00000200: bcfb f53b 01cb 493c 7ec1 93bd 8d1c ce3c
00000210: 48b4 91bd c8a6 fc3c cbfd 6bbd 9c54 693d
00000220: 60e9 363d 266c 483d 220c 65bd dc0a 233d
00000230: ed23 94bd 9d5e b03c 2905 a93d 365e c73b
00000240: 12b2 06be 8c01 88bd 82bc 19bb 0311 8cbd
00000250: c906 363c c8d4 b6bc 1a6a 04bd 2705 1e3d
00000260: 47a3 2ebd bd68 1ebd 379b 983d 78f1 80bb
00000270: f451 32bd 6471 9f3c 2d6b 363d 7782 a7bc
00000280: df83 91bc 609d d3ba 5076 4d3d cbfe e5bd
00000290: c640 433d 2d9b b8bc 1275 343d 32b7 2abd
000002a0: 6136 2fbc 5286 bcba 7c84 cbbb f6db 82bd
000002b0: 410b c3bd 02ce 0fbd 49b3 9b3c ae64 9ebc
000002c0: fbc2 5a3d 4f5c 1a3d 9ff4 773d 6c1e bb3c
000002d0: 4512 adbd 0722 aabc ed68 71bc ba05 edbc
000002e0: af2a 653d 3e3d 6bbc 193c 04bd fc33 6abd
000002f0: 36cb bf3c 967b cf3c 3f4d 743d fbf6 51bd
00000300: 0522 42bd 77f8 d3bc cf9e 2fbc be71 a7bd
00000310: f1e3 0bbd b776 2cbd e9c1 4f3d 8245 b3bb
00000320: 98ed 513c f2cf c4bb c98b 453d e7bf 9e3d
00000330: 9302 463d 0327 c3bc 1258 bebd d4de 583d
00000340: 30cd 3dbd 0e2c 433d cacb bd3d ca11 2d3d
00000350: 8402 77bb 7dff 64bd 943f debd 5969 c2bd
00000360: 5f45 91bc 4728 a73d 8beb 8bbd 422f c2bb
00000370: 0d9b a7bd 40a4 6fbd 1a3b f3bc 3911 71bd
00000380: f90c 303d 787a 1e3d 4f9f 55bc 0163 ebbb
00000390: 69fe 4e3d 4f22 a23d 3548 78bd 7ff1 493c
000003a0: e54c 8e3d 39e8 603d 9b1d adbb 92e2 303d
000003b0: ef27 493b 5bd4 5fbd 8d4a 3f3d 6ea8 e13c
000003c0: 693a 1dbc 5ce9 303c 2793 2dbd e2c2 4b3d
000003d0: 4372 823b 8eaa 143d de40 1a3d 27bf 15bb
000003e0: c3c8 ab3d b0bc 8ebd a34e 4abd 4564 90bd
000003f0: c338 41bd e37f 28bd cd3a 043d 70b0 be3d
0.015969962 -0.045674477 0.0145558305 0.027240414 -0.047397144 -0.035934713 0.032856267 -0.059770737
0.01782404 -0.05276331 -0.0035079839 0.06890458 -0.07364674 -0.10056176 0.004725897 0.0075824247
0.07220276 -0.010985761 0.092897326 -0.09720604 0.080817096 -0.09916498 -0.052114844 0.008468582
-0.08788683 0.03185766 0.020086296 -0.020999836 0.059712164 -0.014718691 0.043560363 0.032586478
0.077499084 -0.057685807 -0.07877421 0.058407955 -0.08406854 -0.021744534 -0.070768856 0.06344563
-0.0025093476 -0.07210526 -0.0035976705 -0.011267589 -0.05182172 0.014733542 0.06254925 0.028956657
-0.027810918 -0.04890597 0.016238883 -0.05661902 0.035020642 -0.009915875 0.036766592 -0.0327122
-0.06438649 0.04056045 -0.027288983 -0.043687288 0.021608016 -0.049561765 -0.029356413 0.06523914
-0.0007075433 0.001863795 -0.043627694 -0.006892223 -0.09608257 -0.0821817 0.040166613 -0.021739397
0.05980405 0.058461864 0.06516507 -0.07089107 -0.07047296 0.046999097 0.079711854 0.059843335
-0.051721867 0.08608021 0.05815363 -0.04110366 -0.018940374 0.054149162 -0.035851825 -0.0034071174
0.033166107 0.035409886 -0.042587787 -0.015775647 -0.02696407 0.044122707 -0.01646495 -0.04225416
-0.033048145 -0.08682415 -0.03841611 0.070495896 -0.08315328 -0.04040535 -0.010411575 -0.06729918
0.053399738 -0.018457703 -0.064489596 -0.06351841 0.07301143 -0.044703994 -0.044827178 -0.035658427
0.010189141 0.06295451 0.043260492 0.011915224 -0.072324954 0.07714871 -0.07237689 0.032591738
-0.028032953 -0.07975539 -0.07851603 -0.0066235424 0.058682334 0.0005770806 -0.00025533224 0.0047800126
0.0075068157 0.012316466 -0.0721464 0.025160098 -0.07114464 0.030841246 -0.057615083 0.056965455
0.044656157 0.048931263 -0.055919774 0.03980528 -0.07233415 0.02152949 0.08252937 0.006084229
-0.13153866 -0.0664092 -0.0023458307 -0.06839182 0.011110016 -0.022318259 -0.03232775 0.038579132
-0.042636182 -0.038674105 0.0745148 -0.0039350353 -0.043535188 0.019463249 0.044535805 -0.020447953
-0.017763076 -0.0016144924 0.05016166 -0.112302385 0.047669195 -0.022534931 0.04405696 -0.041678615
-0.010694117 -0.0014383292 -0.0062108617 -0.063896105 -0.09523631 -0.035108574 0.019006388 -0.019335117
0.053408604 0.03768569 0.060536023 0.022841655 -0.0845075 -0.020768179 -0.014734489 -0.028933395
0.05594891 -0.014357863 -0.032283876 -0.057178482 0.023412328 0.025327485 0.05964398 -0.05126093
-0.047395725 -0.025875313 -0.010719015 -0.081759915 -0.03415293 -0.042105403 0.050722037 -0.0054709325
0.012812994 -0.0060062343 0.048229013 0.07751446 0.0483423 -0.023822313 -0.09294142 0.05294688
-0.04633826 0.047649436 0.09267385 0.042253293 -0.0037690708 -0.055907715 -0.1085197 -0.0949275
-0.017733274 0.08161979 -0.06832036 -0.0059260437 -0.081838705 -0.05850625 -0.029691268 -0.058854315
0.04298112 0.038691014 -0.01303847 -0.007183433 0.050535593 0.079167 -0.060615737 0.012325644
0.0694826 0.054908965 -0.0052830703 0.043184824 0.0030693968 -0.054645877 0.046701957 0.027546134
-0.009596446 0.010797825 -0.042376664 0.0497464 0.003980906 0.036295466 0.03765952 -0.0022849531
0.08387902 -0.06969583 -0.0493914 -0.07050375 -0.047173273 -0.041137587 0.03228264 0.093109965

shallownet.6.bias f4 [32]
00000000: 3dfe e1bc ae42 b93d b192 06bd d3a6 cd3c
00000010: 638d b13b 3c2d 92bd cf59 f6bc 0be1 cfbd
00000020: c2c9 b0bc 52bc 143b fa21 b4bd 149f 18bc
00000030: 6b31 51bc 8529 5dbd 0b3e c13d 4318 f4bc
00000040: e826 d6bd fa67 61be 12c0 663d 967c f6bb
00000050: 9765 34bd 6610 b03c 6f2d 77bd b7ea 52bd
00000060: 487b 453d dff4 83bb 3445 21bc ad33 af3d
00000070: d736 9f3d f892 d9bb af70 85bd 7e27 06bd
-0.02758705 0.09045921 -0.03285474 0.025103962 0.005418466 -0.07137534 -0.030072121 -0.101503454
-0.02158058 0.0022695255 -0.08795543 -0.009315271 -0.01276813 -0.053994674 0.09435662 -0.029796725
-0.104566395 -0.2201232 0.056335516 -0.007522176 -0.044042196 0.021492194 -0.060346063 -0.051493373
0.048213273 -0.0040269936 -0.0098431595 0.08554778 0.07774132 -0.0066398345 -0.06515633 -0.032752506

shallownet.8.weight f4 [32]
00000000: 7231 853f 8d29 873f b22b 893f 6c53 953f
00000010: 45e5 8c3f f16a 853f 0d15 843f 7f3b 933f
00000020: ca55 8e3f fba0 893f 806c 873f 2a74 863f
00000030: 06c7 883f 860c 893f 53c7 823f 8eb8 823f
00000040: d6cc 8b3f ce87 a03f eb9e 833f c939 843f
00000050: d99d 8c3f 8b44 843f 38ad 8a3f ef76 883f
00000060: 6e94 823f c26b 833f db7e 803f 6352 893f
00000070: fe4f 8b3f 1d10 8a3f 340b 853f 46b5 833f
1.0405715 1.0559555 1.071646 1.1666083 1.1007468 1.0423261 1.0318924 1.1502532
1.1119931 1.0752252 1.0579987 1.05042 1.0685737 1.0706947 1.0217079 1.0212572
1.0921886 1.2541444 1.0282873 1.0330135 1.0985671 1.0333418 1.0834112 1.0661296
1.0201547 1.026726 1.0038713 1.0728267 1.0883787 1.0786167 1.0394044 1.0289695

shallownet.8.bias f4 [32]
00000000: 07a8 0d3b e78d e93b 7d68 9739 9b01 573b
00000010: 425d b2ba 59c7 203b 2bee a73c fa55 683b
00000020: dcb3 ab3a cdbd db3a 2725 1b3c 6fd4 1eba
00000030: 7788 013b 42aa 3c3b 8c4b 8f3b a03b 6a3b
00000040: fafc 0d3c 7a03 1e3c 9430 c93a 4431 08ba
00000050: 59cf 433b aa81 8139 8da5 a9b9 34ee 883b
00000060: ca5f 453b f6c0 333b 3041 4b3b 2e9c 133b
00000070: d6ef 19ba a012 143b 60a6 deb9 efc2 e93b
0.0021615045 0.007127512 0.00028878814 0.0032807353 -0.0013608115 0.0024532883 0.02049931 0.0035451637
0.0013099867 0.0016764939 0.009469307 -0.0006058877 0.0019765177 0.0028788005 0.0043730196 0.0035741106
0.008666271 0.009644384 0.001534956 -0.00051953294 0.0029878228 0.00024701405 -0.00032357537 0.0041787867
0.003011691 0.0027428246 0.0031014197 0.002252351 -0.0005872225 0.002259411 -0.000424671 0.0071338336

shallownet.8.running_mean f4 [32]
00000000: 6dd3 093e e44c 353e b244 aa3e 5f29 393e
00000010: 5d12 f83d 50f7 a43e f06e ce3d 9580 9d3d
00000020: 74ac bd3d 9ebd 2a3e f779 a53d 4f61 593e
00000030: c242 033e 5fc2 913e 6da3 713e 3e31 0e3e
00000040: fec9 323d 787c c83b d585 4c3e 0843 443e
00000050: 6a06 123e 8a9d 3f3e 6220 ea3d a3b4 d33d
00000060: 44bf 1f3e 772e 823e 8b7a 233e 44f2 843e
00000070: ce4b 523e 9771 123e 0fbc c73d a867 2c3e
0.13459559 0.17705113 0.33255535 0.18082188 0.121128775 0.32219934 0.100797534 0.07690541
0.092614084 0.16673896 0.080799036 0.21228527 0.12818435 0.28468606 0.23597498 0.13885972
0.043649666 0.0061183535 0.19972928 0.19166195 0.1426026 0.1871244 0.11431958 0.10337188
0.15600306 0.25426075 0.15964715 0.25966084 0.2053673 0.14301144 0.09752666 0.16836417

shallownet.8.running_var f4 [32]
00000000: 88ee 373d 540a 633d c2fa 1f3e afe4 0b3d
00000010: 6792 af3c 5128 8b3e 89dd 423d 888d a93c
00000020: 9f4d d43c dd07 d43c 61d8 733c 7c72 153d
00000030: 8b67 ca3c 7881 693e 4389 093e 4544 cb3d
00000040: df08 df3b d25e 5e3a 1968 fc3d f532 3f3d
00000050: 178e e93c 757b 223d 3744 9a3c 909d c93c
00000060: 5f44 993d 088c 2b3e 53d9 0c3e 0e11 fe3d
00000070: 3a8d 463d f1c7 333d dcf5 b13c c1f5 633d
0.044905216 0.05542977 0.15623 0.034153637 0.021432115 0.27179196 0.047574554 0.02069737
0.025915919 0.025882656 0.014883132 0.036486134 0.024707576 0.22803295 0.13431267 0.09925131
0.0068064774 0.0008482757 0.123245426 0.046679456 0.028510137 0.03966852 0.018831355 0.024611264
0.07483744 0.16752636 0.13754778 0.12405597 0.048474528 0.04389185 0.02172368 0.05565429

shallownet.10.weight f4 [2, 5632]
00000000: bce4 bcb8 d8df e23b 9db0 22b9 7fda 8fbb
00000010: a117 7ebc 7fc4 693b 06e4 fcbb f386 9abb
00000020: 6914 b3bb 0426 6d3b b5a6 723c 5e18 06bc
00000030: 3439 73bb 07df ab3b 52b9 5f3c d4e4 01bb
00000040: dc1d 3bbb 90d8 6a3c e145 373a 0557 edbb
00000050: bbcc 4cbc 33d6 9b3a 270f a1bc 9828 343c
00000060: 7f45 9ebb ef73 34bb a552 0bbc bb5f 8c3b
00000070: 3073 0a3b 2816 c53a bffc 15ba 4f27 12bc
00000080: 54e8 fc3a 4483 9f3c 1571 853b 23f3 28bc
00000090: ef70 3ebc ebb7 9fbc 8d08 5a3c c427 acbd
000000a0: 627d 21bc 1730 7bbc b98e db3b 44f0 693c
000000b0: 2da3 653c 76e1 9f3b 2fbe b53b a1ba 7abc
000000c0: 710a d1bb d0fd 9f3b 8b3e 10bc c296 79bc
000000d0: 8391 5e3b d7d9 b3bb 32eb 9dbc ad59 a73c
000000e0: fa41 b9bb 3177 6e3b 4bd2 7eb9 aaf7 2a3c
000000f0: 4643 113c 8a42 7a3b 8463 653b dfe3 aebc
00000100: 4469 bfba ec00 4ebc 50da cebc c329 a93b
00000110: 47c6 23bc 20df 2dba 831e 80bb af6f 3b3a
00000120: c0da 8abb fe17 babc f9c1 64bb 1f79 06bc
00000130: 88f9 133c 7a2b 8fbb 99da 813c bc96 38bc
00000140: 3bc9 d83b 8311 33bc d6f9 16bc a0b6 46bb
00000150: 2970 593b b9eb 573b 9b52 c23a b474 02bc
00000160: 3904 b73c edf8 65bc e8c7 0abc b1b6 e9ba
00000170: 271a 8a3c 9eaf 303c f457 4fbb 044b 17bc
00000180: 8bdf aa3c 12f5 bcbb 510e 98bc dea2 2bbc
00000190: 81e7 50bb 200f 08bc b992 ee39 3e06 643c
000001a0: 7e89 d8bc e98c 96bc 18c9 623b 9e46 03ba
000001b0: f277 683a 6aa6 bd3b e44c 0e3a ce51 37bc
000001c0: c30d 0c3c 818e 083d 8ed0 1dba a6e0 0cbd
000001d0: 5069 1fb9 0b7d 063b 7935 b0bb f06d 41bc
000001e0: c20e 2e3b acd6 f7bb b655 35bc e7b1 acba
000001f0: 9395 a2ba 4fd1 7f3c f7fc 4bba a129 1d3c
00000200: 9fb8 c0bb 484e d6bb 7253 5f3c b0e4 50bc
00000210: 477f dbbc 96ff 77bc f9eb 193c 038c a2bc
00000220: 7b84 33bb 8994 80bc 0d3e 333a b3a2 f1bb
00000230: 06f4 d3bb 94ea 77ba d333 ecbb d9e0 0cbb
00000240: 3507 1f3b 1564 773a 1fcb d0bc 06be 363a
00000250: f1e9 57bc e45c 3dbc 0469 97bc 2237 afbc
00000260: 5d2a 9b3a 3356 6abb a35f 633b e418 903b
00000270: 83c3 283c 616a 34bb 3031 603c 3ae6 9b3a
00000280: 1f8a 07bc c328 0a3b 3059 543b 7b56 05bb
00000290: 38fd f1bb ceb6 cebc b99d efbc 6f8e d0bb
000002a0: 0113 ecbb 2fc7 b4bc 5b96 b5b9 a3c7 083c
000002b0: 39de 653a 0f34 c9bb 67c5 8c3c 066d b5bb
000002c0: 50fb 3e3a 625f 4aba b8ee b5bb 2a7c 20bd
000002d0: 1a03 8abb 3021 353c 7ff3 9ebc bd31 1b3b
000002e0: 8b1e 583c bd70 d3bb 82d4 2d3c 53b4 17bc
000002f0: 988d c1bb 15d5 46bb 348a 27bb ca79 813c
00000300: 09cc 2e3c 75f7 3bbc 47a8 13bc 5777 0f3d
00000310: 5f2a 02bd 8152 5ebc cdbc 06bc fcf3 933a
00000320: 8eda ccba 90f8 993b 4cb4 093c 167f 2e3c
00000330: 65a4 4d3c 7878 8a3c a3bb 863c 74c0 5739
00000340: a5d5 d1bc 3098 06bc 625b c0bb b7df b93c
00000350: 1a75 0bbd 4da1 04bb a131 6bbc 0da3 db3a
00000360: 9828 423c 5f0b b63a 74f5 773c 04cd 1dbc
00000370: 2e9e 893c 5a86 9c3c 9678 06bc 7df6 2a3c
00000380: 1223 7939 5985 0f3c 8345 943c 9914 febc
00000390: b685 93bc 147c 21bd bb38 a8bc a08a 323c
000003a0: 5194 383c 973b 8cbc 364a 3c3c b974 5dbc
000003b0: 616d 5f3c b417 aabb 271a 413b 9d44 273c
000003c0: 85e3 34bb e84e aebb 92f8 80bc a058 82bc
000003d0: 822f 08bd 2c35 14bc 52a1 873b 9dd5 e2bc
000003e0: 767a ffbb 1353 45bc ea40 66bb 6dd8 eb3a
000003f0: a393 703b 41fd 933a e3c6 15bc 4365 41bb
-9.007144e-05 0.006923657 -0.00015515318 -0.0043900604 -0.015508563 0.00356701 -0.007717612 -0.004715794
-0.0054650796 0.003618599 0.014810254 -0.0081845205 -0.0037112953 0.005245093 0.013655024 -0.001982023
-0.0028551733 0.014333859 0.0006991309 -0.0072430396 -0.012499983 0.0011889398 -0.019660546 0.010996006
-0.004830062 -0.0027534922 -0.008503591 0.004283873 0.0021125786 0.001503651 -0.0005721561 -0.008920505
0.0019295313 0.019471772 0.0040723183 -0.010311875 -0.011623605 -0.019496879 0.013307703 -0.08406022
-0.009856554 -0.01533129 0.0067003635 0.014278475 0.014015955 0.004879172 0.0055463533 -0.015303285
-0.0063794185 0.0048825517 -0.008803974 -0.015233697 0.0033961243 -0.005488615 -0.019277189 0.020428503
-0.005653617 0.0036386962 -0.00024301668 0.010435024 0.008866137 0.0038186633 0.0035001943 -0.021348892
-0.0014603515 -0.012573462 -0.025250584 0.005162449 -0.0099960035 -0.00066326745 -0.0039098873 0.0007150126
-0.004237503 -0.022716518 -0.0034905656 -0.008207588 0.009031661 -0.0043691965 0.015851306 -0.011266407
0.0066157854 -0.010929468 -0.009214839 -0.0030321255 0.0033178425 0.0032946898 0.0014825644 -0.0079623945
0.02234088 -0.014036399 -0.008470513 -0.0017830936 0.016858174 0.010784058 -0.0031638118 -0.009234194
0.020858547 -0.0057665193 -0.018561514 -0.010475842 -0.0031876268 -0.008304387 0.00045504214 0.013917504
-0.026432749 -0.018377738 0.0034604724 -0.0005007776 0.0008867971 0.0057876604 0.0005428328 -0.011188937
0.008548203 0.033339027 -0.0006020152 -0.03439393 -0.00015202654 0.0020521309 -0.005377468 -0.011805996
0.002655909 -0.0075634327 -0.011067798 -0.0013175578 -0.0012404196 0.015613868 -0.000778153 0.009592445
-0.0058813835 -0.0065400936 0.013630735 -0.012749836 -0.026794089 -0.01513662 0.009394639 -0.019842153
-0.0027392197 -0.015695827 0.00068375544 -0.0073741316 -0.006468299 -0.0009457257 -0.0072083264 -0.0021496324
0.002426577 0.00094372156 -0.02548748 0.0006971065 -0.013178335 -0.011557791 -0.018482693 -0.021388594
0.0011838187 -0.0035756945 0.0034694455 0.0043974984 0.01030052 -0.0027529227 0.013683602 0.0011894174
-0.008272677 0.0021081425 0.0032401793 -0.0020345736 -0.0073849224 -0.025233652 -0.029250013 -0.0063646357
-0.007204414 -0.022067634 -0.00034635034 0.008348378 0.00087687705 -0.006140239 0.017183973 -0.0055366782
0.0007285373 -0.00077199016 -0.005552139 -0.039180912 -0.0042117955 0.011055276 -0.019403217 0.002368077
0.013190876 -0.0064526484 0.010609748 -0.009259301 -0.005906772 -0.003033941 -0.0025564553 0.015805144
0.010668763 -0.011472573 -0.009012288 0.03502592 -0.03177869 -0.013569475 -0.008223725 0.0011287923
-0.0015629099 0.0046988204 0.0084048025 0.010650417 0.012551402 0.016903147 0.016446894 0.00020575692
-0.025614569 -0.008214995 -0.0058702687 0.022689683 -0.034047224 -0.0020237744 -0.014355094 0.0016756967
0.011850499 0.0013888887 0.015134204 -0.009631399 0.016799059 0.019107033 -0.008207461 0.010434744
0.00023759555 0.00875982 0.018099552 -0.031015681 -0.018008094 -0.03942497 -0.020534864 0.010897309
0.01126583 -0.017118258 0.011492303 -0.013516598 0.013636918 -0.005190814 0.002946505 0.01020923
-0.0027601433 -0.005319465 -0.015743528 -0.0159114 -0.033248432 -0.00904588 0.004139104 -0.02768975
-0.007796581 -0.012043732 -0.0035133907 0.0017993577 0.0036709092 0.0011290686 -0.009141657 -0.002950982

shallownet.10.bias f4 [2]
00000000: 7ace 86bb 627f 3ebc
-0.0041139694 -0.01162705

exp_avg f4 [16, 1, 3, 3]
00000000: 4d8a d6ad c202 17ae b724 d3ad ffca 5bad
00000010: 2db6 a5ad 9d2b 82ad 3594 18ac 0993 38ac
00000020: 74db 9dac 654f 812f 5671 f22f f4c9 792f
00000030: 58c4 172f 0889 ac2f 63df e42e 333f 8baf
00000040: c91c 27ae df66 6aaf c5f2 1d2f 7573 0aaf
00000050: e2c7 b22f edba ef2e aa7e 842e e5e2 9c2f
00000060: 666b d2ae d7da e42f c8ff 922f 2052 2cad
00000070: f2d6 342e 809b 0baf 06f5 ceae 4109 d12c
00000080: 18b2 33ad de5c a2ad d59a 002e 24f7 12ae
00000090: be49 4e2f 642f 272e d865 072e 47b6 732f
000000a0: f118 362e 59af de2d 8fe3 402f 81c0 1a2e
000000b0: 527b 962d b2f9 e62d 475b eb2e 7186 0230
000000c0: a68b 4f2e a635 872e 965c f52f 4f20 5e2e
000000d0: 9daf 202e 9617 922f 3a1d 11af 9018 d1ae
000000e0: c48a 2a2e 0de3 acae 8950 8c2d 1d79 452f
000000f0: 5834 ba2e a7ab 122f 043e e12e b639 9b2c
00000100: 2348 572e 052b 452f 671b 542e bc44 da2d
00000110: fd02 8d2f 1acd f62e bd2a ce2d f883 912f
00000120: e6de 172f 6680 cf2e 01b3 1eae 0c09 06af
00000130: a4a2 ac2e dc02 8eae 5674 e6af 9f0f 0bb0
00000140: d6cf 8daf 1a21 db2e 08f8 042f ba6b bd2f
00000150: 1e14 9e2d 6e48 812d 3177 962f ae84 35ae
00000160: 29b8 85ae 70d0 e92d 9ecf 2cb0 a134 dfaf
00000170: 9394 4faf 4055 20b0 10f8 21b0 e9d8 43af
00000180: d079 bdaf 8807 19b0 3f49 8faf d8bf b2af
00000190: bdfc 81af e2d7 19b0 0b0d 3aae e522 f72e
000001a0: d453 dc2e d090 86ad 6f6f 962f a316 1530
000001b0: 2eee 75af 38eb c7af 2e1d d0ae dcb7 51ae
000001c0: 239e 72af 1583 45af 561c 9bae 7a25 512c
000001d0: 2395 4cae 08f5 8b2f c592 1aae 9605 a72c
000001e0: 5a11 ca2e b8f4 3faf 4993 c82e f0e4 212f
000001f0: 942d 15ae 0220 2d2f 4ca4 6a2c c456 a32c
00000200: ed4b 082c ea86 1e2d bc3b 3e2d 9803 d02c
00000210: d061 902d 83db cb2d bbb3 472d e220 382e
00000220: 7b69 912e 78d5 e52d b2be 9f2e ffd4 062f
00000230: 4fbc b52d 2a91 022f be6d 392f 2f6e c12d
-2.4390401e-11 -3.4335874e-11 -2.4004227e-11 -1.2493783e-11 -1.883923e-11 -1.4798657e-11 -2.168277e-12 -2.6229594e-12
-4.4865726e-12 2.3521377e-10 4.4100074e-10 2.2718166e-10 1.3803125e-10 3.1383984e-10 1.0407921e-10 -2.5328858e-10
-3.799697e-11 -2.1318723e-10 1.4365316e-10 -1.2592045e-10 3.2520037e-10 1.09016664e-10 6.025165e-11 2.8537453e-10
-9.568772e-11 4.1628453e-10 2.673899e-10 -9.7953035e-12 4.111817e-11 -1.2697221e-10 -9.41132e-11 5.9411647e-12
-1.0214517e-11 -1.8458509e-11 2.924135e-11 -3.341606e-11 1.876179e-10 3.8013495e-11 3.07859e-11 2.2165479e-10
4.140416e-11 2.5316348e-11 1.7543143e-10 3.5186524e-11 1.7107791e-11 2.625886e-11 1.0702777e-10 4.7484777e-10
4.7190384e-11 6.148619e-11 4.4631027e-10 5.0505652e-11 3.6535764e-11 2.6574004e-10 -1.3198057e-10 -9.508583e-11
3.8776773e-11 -7.861987e-11 1.5951922e-11 1.7960074e-10 8.467599e-11 1.3339606e-10 1.02428316e-10 4.411772e-12
4.894941e-11 1.7932329e-10 4.8227557e-11 2.4814255e-11 2.5649874e-10 1.1223218e-10 2.3438468e-11 2.6469116e-10
1.381256e-10 9.436078e-11 -3.6084028e-11 -1.2190443e-10 7.850545e-11 -6.45792e-11 -4.1919418e-10 -5.0590104e-10
-2.5795427e-10 9.964847e-11 1.2093448e-10 3.4455444e-10 1.7971454e-11 1.4697767e-11 2.7369532e-10 -4.127248e-11
-6.080853e-11 2.6581598e-11 -6.286828e-10 -4.060086e-10 -1.8879324e-10 -5.832881e-10 -5.8923977e-10 -1.7812209e-10
-3.4465453e-10 -5.567178e-10 -2.6063593e-10 -3.2514325e-10 -2.3644545e-10 -5.5967864e-10 -4.2303088e-11 1.1238458e-10
1.00193326e-10 -1.5298346e-11 2.736402e-10 5.4238053e-10 -2.2367239e-10 -3.6365022e-10 -9.463928e-11 -4.7684398e-11
-2.2065953e-10 -1.7963615e-10 -7.0536174e-11 2.972149e-12 -4.651669e-11 2.5458058e-10 -3.5145904e-11 4.7470456e-12
9.188979e-11 -1.745829e-10 9.12111e-11 1.47242e-10 -3.391916e-11 1.574563e-10 3.3344603e-12 4.6423716e-12
1.936891e-12 9.011217e-12 1.0813513e-11 5.9121145e-12 1.6414342e-11 2.317591e-11 1.13517485e-11 4.1865962e-11
6.612574e-11 2.6129085e-11 7.264357e-11 1.22629e-10 2.0660943e-11 1.1875004e-10 1.686464e-10 2.1990491e-11

exp_avg_sq f4 [16, 1, 3, 3]
00000000: 1ca9 4b27 5d3c c527 9102 6127 771f 8626
00000010: 7ad1 e426 e8ed a526 b7d9 a324 518c 0624
00000020: 1497 e824 1047 282a 11a4 352a e979 342a
00000030: cbfc 942a f50d 282a ced4 3b2a d797 bf2a
00000040: cceb 3c2a b2f0 3b2a 866c 7928 ccb4 5829
00000050: 5dc6 a829 a442 3728 b0a2 1429 95cb a429
00000060: fdbe a128 897a ab28 5bea 8f29 a949 2428
00000070: 52a7 c328 ca3c 5429 0b4e 8d27 9b3e 3f28
00000080: bd2d 2829 f108 0e28 e16e 0728 7ff3 2829
00000090: b082 732a f43c 2528 135e c127 e74c 932a
000000a0: 4c8d 3328 551d 7b27 9c86 2e2a e906 e627
000000b0: 16bc f226 966d 3527 a875 1729 3c55 442b
000000c0: 5b14 ee27 23e0 7b28 3904 302b 0282 0628
000000d0: fd36 a927 1169 8b2a 6659 5529 d9b4 e928
000000e0: 9e59 8f29 a363 5228 d061 9828 1eaf 1829
000000f0: b0f6 6428 8a16 4e28 24c9 b828 15d5 3228
00000100: 218d a229 9aab b429 772d 8728 db03 4b2a
00000110: 11d8 812a 6c28 b628 89e3 7d2a 9eb0 b82a
00000120: 0471 442a 4310 792a 2e92 7e2a ce4b ae2a
00000130: a122 1d2b e60b 952a 75f5 052b 6d3a 222b
00000140: 5fde a32a 97d3 9728 e94e 1828 94b2 4228
00000150: 77e4 ca28 4f9c 1b28 9c87 3828 af03 fd28
00000160: 222b 2228 8331 ab27 f6fc 272a ffa2 cb29
00000170: d0d8 8d28 766c 822a 0868 512a a31d 4628
00000180: 8879 b72a 1828 792a deee 9c28 e853 072a
00000190: f7ca 072a 602b 102a 732a b829 91f8 aa2a
000001a0: 2b8e e12a f409 822a c11b c02a 4b66 3c2b
000001b0: bf89 9227 c75d 4528 5a4e c229 7209 7527
000001c0: b4a4 0428 8d05 4c29 f13d 3a28 3205 2f28
000001d0: 0519 eb28 7b29 b228 b1d6 8329 d129 9c28
000001e0: 833e 3428 1667 8228 4789 1f28 9643 9028
000001f0: 9846 ee27 2923 6b28 1f6c e027 50eb 9d27
00000200: 39cc f924 b210 f928 6be4 c728 01dc 5626
00000210: 967c a929 7380 9c29 019f 5027 44ae aa29
00000220: ade9 7a29 ad94 4228 c6db 992a 6cd2 3a2a
00000230: 02ea 9528 84cd f72a 7acd 5f2a 6a2a 4929
2.8263584e-15 5.474393e-15 3.1226414e-15 9.306646e-16 1.5877457e-15 1.151366e-15 7.1058805e-17 2.917547e-17
1.008699e-16 1.4946052e-13 1.6132951e-13 1.6029508e-13 2.6465492e-13 1.492624e-13 1.6682768e-13 3.4033776e-13
1.6779563e-13 1.6692444e-13 1.3845809e-14 4.811845e-14 7.495109e-14 1.0172991e-14 3.300371e-14 7.318379e-14
1.7957419e-14 1.9037955e-14 6.39113e-14 9.119801e-15 2.1721913e-14 4.7126182e-14 3.9219976e-15 1.0616205e-14
3.7343165e-14 7.884522e-15 7.5180484e-15 3.7514693e-14 2.1628077e-13 9.172557e-15 5.3670256e-15 2.6165807e-13
9.967135e-15 3.4849148e-15 1.5501007e-13 6.3845316e-15 1.6843104e-15 2.5178203e-15 3.3630786e-14 6.9751475e-13
6.608034e-15 1.3981901e-14 6.253362e-13 7.466685e-15 4.696654e-15 2.4764265e-13 4.737304e-14 2.5946627e-14
6.366022e-14 1.1678947e-14 1.691781e-14 3.390267e-14 1.2710034e-14 1.14401845e-14 2.0515334e-14 9.92719e-15
7.218727e-14 8.023374e-14 1.5007728e-14 1.803136e-13 2.306493e-13 2.022359e-14 2.2549856e-13 3.2807519e-13
1.7447507e-13 2.2121285e-13 2.2610448e-13 3.096121e-13 5.582566e-13 2.6475973e-13 4.759173e-13 5.7635044e-13
2.9108917e-13 1.685613e-14 8.454806e-15 1.0807886e-14 2.2525586e-14 8.6381225e-15 1.0243457e-14 2.809024e-14
9.0021594e-15 4.7515715e-15 1.4920343e-13 9.043286e-14 1.5748172e-14 2.31679e-13 1.8599022e-13 1.0997634e-14
3.259166e-13 2.2129553e-13 1.7423071e-14 1.201952e-13 1.2060826e-13 1.2804818e-13 8.178605e-14 3.0370544e-13
4.0066678e-13 2.3099545e-13 3.412531e-13 6.6932977e-13 4.0672485e-15 1.09560315e-14 8.6289225e-14 3.40057e-15
7.363186e-15 4.5301914e-14 1.03385055e-14 9.715578e-15 2.6101092e-14 1.9779959e-14 5.854812e-14 1.7337614e-14
1.0005562e-14 1.4477606e-14 8.85604e-15 1.6016522e-14 6.6134808e-15 1.3052745e-14 6.2289715e-15 4.383138e-15
1.083325e-16 2.7651794e-14 2.2192499e-14 7.4544326e-16 7.52672e-14 6.950074e-14 2.8951995e-15 7.579747e-14
5.5713833e-14 1.0801402e-14 2.7330758e-13 1.6593123e-13 1.6643808e-14 4.401862e-13 1.9877668e-13 4.4667754e-14

exp_avg f4 [16]
00000000: ca6c 34ae 76b3 2928 aa53 7aae 0c53 04af
00000010: d0c4 862f c8c9 1b30 7a20 41a8 7724 c42f
00000020: cb4d 39af 50eb 9b30 8b62 45a8 5bb0 23b0
00000030: efbf aeaf 4cca 252d 859f 082e 064c 5b2f
-4.1023886e-11 9.420299e-15 -5.6917727e-11 -1.2034834e-10 2.4514302e-10 5.667542e-10 -1.0720694e-14 3.5678102e-10
-1.685329e-10 1.1344614e-09 -1.0957065e-14 -5.954967e-10 -3.1786793e-10 9.424083e-12 3.10645e-11 1.9944943e-10

exp_avg_sq f4 [16]
00000000: b7bb 3428 56b6 881d 8049 0529 6b5f 9929
00000010: 4746 052b 8ce9 ca2b f5cc 491a d39d 322b
00000020: 4e08 7225 2427 b92d 6121 1b1c 5a20 e32a
00000030: 15e4 1c29 7cf3 9726 f13d 292a 05dc 542b
1.0032711e-14 3.618743e-21 2.9595684e-14 6.811117e-14 4.734862e-13 1.4417786e-12 4.173139e-23 6.345733e-13
2.0992968e-16 2.1049447e-11 5.132834e-22 4.034575e-13 3.4836788e-14 1.0543726e-15 1.5031706e-13 7.562287e-13

exp_avg f4 [16]
00000000: cf44 5dab fa51 6daf 3875 8eae 7cc5 9a2e
00000010: 6f04 f12d f103 4f2e 2f3f cbae 3651 6e2e
00000020: 31fa a82e 3aff 90af c891 412e 56b9 f5ae
00000030: 90ef 8f2e 0f0f 152f a242 e42b 41ab 7f2e
-7.8610463e-13 -2.1584148e-10 -6.4782346e-11 7.0381895e-11 2.7400497e-11 4.706985e-11 -9.242595e-11 5.4187065e-11
7.6841984e-11 -2.6374797e-10 4.40126e-11 -1.11742324e-10 6.545442e-11 1.3556821e-10 1.6218869e-12 5.813239e-11

exp_avg_sq f4 [16]
00000000: 17b3 7d21 d3f9 e528 517b d328 b3f0 3a28
00000010: afa6 3d27 7fbb 8827 40f0 c027 f98b e627
00000020: bcdd b528 2d71 2229 44cb 2529 4beb f827
00000030: 500e bf28 0793 4c28 eec9 1625 2001 1328
8.595676e-19 2.5532451e-14 2.3479186e-14 1.03772675e-14 2.6319378e-15 3.7950867e-15 5.3551185e-15 6.3989583e-15
2.0191199e-14 3.606939e-14 3.6813665e-14 6.9088933e-15 2.1211467e-14 1.1356156e-14 1.3078843e-16 8.160383e-15

exp_avg f4 [16]
00000000: 749c 8430 4a10 db2f a6ca 10af 02a7 06b0
00000010: fcc9 212e 1dc8 fc2f 32f9 f92e 8208 2230
00000020: d1b7 4830 b215 05b0 8f92 1530 f617 1c2f
00000030: c099 882e 3825 b3ae ea32 11b0 ab86 e02f
9.648731e-10 3.9847442e-10 -1.3168719e-10 -4.898625e-10 3.678656e-11 4.5980722e-10 1.1367475e-10 5.8947347e-10
7.3020795e-10 -4.841595e-10 5.4414157e-10 1.419663e-10 6.2118755e-11 -8.146589e-11 -5.2823046e-10 4.084105e-10

exp_avg_sq f4 [16]
00000000: 46ec 9d28 1aa5 e827 93e4 6228 2486 8c29
00000010: 3c63 2d29 f777 bb28 2a35 5a28 c855 0429
00000020: d61e 9d28 16d6 d129 e02e c928 7243 3b28
00000030: cdec 7328 7a0a 5628 7599 7728 8d0b a328
1.7532969e-14 6.457194e-15 1.2595084e-14 6.2405186e-14 3.849979e-14 2.0813197e-14 1.2112959e-14 2.938429e-14
1.7443874e-14 9.3186025e-14 2.2335812e-14 1.039521e-14 1.3540558e-14 1.1881658e-14 1.374453e-14 1.8101645e-14

exp_avg f4 [32, 16, 3, 3]
00000000: d463 3bac b4a6 8bac f07c 8fac 10b6 5bac
00000010: 527e 8bac c7b8 91ac d2b4 47ac 3415 68ac
00000020: 203c 7bac f4d9 0b2f fe1d 172f 2a12 342e
00000030: 0270 58ad fa46 be2e 9bf6 322e fe53 9fae
00000040: 5865 3cae ed5d 60ac 574b 3cae b5aa 87ae
00000050: 026e a0ad 6ebe b5ae 276e f4ae aaa7 4fae
00000060: dd1d 4eae 7209 ebae d28c 95ac 5b79 93ae
00000070: 3316 99ad 3409 952d 2d09 ccae fa29 90ae
00000080: e6d0 90ac e7c5 93ae 524f 89ae 4fbb 23ad
00000090: 98a7 852c 7247 a92d 034d 802d 2807 92ab
000000a0: 799b da2c 329c 272d 1f08 9daa 9dfa baaa
000000b0: 7897 892b 77e2 592a ebf2 592a 0ae5 4d2a
000000c0: ef81 642a 95a1 652a f1ac 592a e021 79aa
000000d0: ac12 5b2a 041e 4f2a 0a66 822e c2b2 1d2f
000000e0: d8cf 0e2e 25d3 d72e 7889 022f 8544 1a2e
000000f0: cf8c a52e c85f 632e 343c d2ad caea 882b
00000100: 483f 16ad 5741 5ead c3a7 47ac 4b67 dfab
00000110: 4e5c 99ac 179d ad2c 37d3 c7ad 5b69 962d
00000120: e910 06af 4eb0 42ae 75c3 fa2d 7156 dbae
00000130: 5010 ec2e f60c f82e 0e6b 52ae 204d f32e
00000140: e61b 372f b012 cb2e d390 802e e3a7 a72e
00000150: 1c90 212e 5c9a 3d2e d031 472e cb18 6b2d
00000160: 0aed 2e2e 29e7 782e a940 d72d 90da 342c
00000170: ca57 aaad 1a2a 772e 2b60 3fae 459c 2d2d
00000180: 701e 902e f393 daae 7a90 c4ad 4f24 282f
00000190: 89a0 b3ae b5dd b72e 3821 192c 4110 022f
000001a0: 92d4 a22e 67d9 1daf 13f7 162f 89d9 ed2e
000001b0: eb05 9fae 874c db2c 0cfa 442e 9024 ceae
000001c0: 3005 9fae 066f 3c2d f805 55ae fc1e caae
000001d0: 9005 422c 1c75 072f cdd4 c52e a1d2 b22e
000001e0: 680f e52e 7333 76ac ce21 582e 0fd0 222e
000001f0: 138a e3ae 86ea 52ae 540c 622c d80e 4a2c
00000200: 1b3e 422c 9d7f d42b 8a81 4d2c b937 e92c
00000210: b28b d9ab ea26 f82b 1ece fb2c 0086 9f2e
00000220: 0b9b 242e 1c3c cfab f005 392a af32 482d
00000230: 971f 8e2d ce4b 9fad 8069 a0ab 28fa c22d
00000240: 5de7 cdad 75f5 87ad 46a9 b0ad 1501 85ad
00000250: ce14 f3ac 8d9a 3cad 4844 0aad e17a 3cac
00000260: d31b ecac f69b 752e 1171 b3ae 728d edaf
00000270: 83ba 3eae ebb2 90af 906c 8aae 0a3a 952e
00000280: 47e3 8b2e c0cb 0fb0 2975 07af a593 022f
00000290: c5d3 952f a58b d3ac 922a b22e 7459 0e2c
000002a0: 34d9 f8ae 2729 102f 9d02 1f2e 3f95 8fae
000002b0: 35c3 762f 2291 9b2f ad90 ddae e2cc 482f
000002c0: 08a5 732f 5db0 63ae 00b8 1f2f 918c f82e
000002d0: 1faa beab a129 c6ab 496d edab 6dcf 9fab
000002e0: 5e8c a9ab ee7d c9ab 35dc 8bab 4c81 9fab
000002f0: 25cf bdab f80c db2b dd62 812d bf1b e9ad
00000300: a352 712b 1807 882e e0b4 9f2c 8fcb 722a
00000310: a65e 2d2e bf3c 882d 92a7 cc2e 53ce 82ae
00000320: 396a 82af 46b6 9ead ed14 61ae 8598 40ad
00000330: 509a e52d 065d 6aad 8ffd 3d2d bf92 22ad
00000340: 4eb7 082d 2a33 a32e 49b7 edac 1706 302a
00000350: 03bf d0ad 9cf8 9cac 0050 36ad 96c3 172f
00000360: aa7e 272f 586a 81af cb32 64af 88e1 582f
00000370: 76e2 07af 8da1 f3af d55c f92d e6ad 9bad
00000380: 8dd6 a4af 0655 f12f b4f5 5b30 82dd b130
00000390: 92b2 dc2f 7e46 3430 33ab 4b30 b84a d62f
000003a0: bdcf b22f 6314 2730 0ba8 89af e8b2 c9af
000003b0: 94aa 1bb0 87ed 32af 7c26 28af 71da f3af
000003c0: 6a88 acae 89a4 2fad fbfd 0ab0 f521 7b2f
000003d0: 0043 0f2f 3639 922f 6f42 ba2f 32c8 cd2e
000003e0: f612 202f bbff 692f 7740 36ac 3251 f62d
000003f0: 1fe6 4eae 7855 3b2f 9baa bd2f 8522 83ad
-2.6629714e-12 -3.9691254e-12 -4.0781753e-12 -3.1222837e-12 -3.964642e-12 -4.1416623e-12 -2.8379976e-12 -3.2980953e-12
-3.5702621e-12 1.2719409e-10 1.3744025e-10 4.0943395e-11 -1.2303049e-11 8.6528076e-11 4.0691544e-11 -7.245403e-11
-4.2836262e-11 -3.1884454e-12 -4.2813166e-11 -6.169413e-11 -1.8238747e-11 -8.264754e-11 -1.11154023e-10 -4.7215266e-11
-4.68655e-11 -1.06882406e-10 -4.250469e-12 -6.706343e-11 -1.7403945e-11 1.6943426e-11 -9.278476e-11 -6.5558184e-11
-4.1159185e-12 -6.7199406e-11 -6.244129e-11 -9.307068e-12 3.798694e-12 1.9244804e-11 1.4586115e-11 -1.037591e-12
6.2131936e-12 9.527533e-12 -2.7894438e-13 -3.3214135e-13 9.776477e-13 1.9352042e-13 1.9357751e-13 1.8287121e-13
2.0295548e-13 2.0395346e-13 1.9333473e-13 -2.2127395e-13 1.9457585e-13 1.8395707e-13 5.929841e-11 1.4342574e-10
3.2471664e-11 9.814575e-11 1.187227e-10 3.5076404e-11 7.528344e-11 5.1698895e-11 -2.3900971e-11 9.728548e-13
-8.540564e-12 -1.2633747e-11 -2.8372727e-12 -1.5873773e-12 -4.3587694e-12 4.934396e-12 -2.2717479e-11 1.7099813e-11
-1.2193237e-10 -4.4267083e-11 2.850851e-11 -9.974322e-11 1.0734935e-10 1.12800366e-10 -4.7843556e-11 1.1064061e-10
1.6653665e-10 9.234691e-11 5.846492e-11 7.6241034e-11 3.6735157e-11 4.3110723e-11 4.5291604e-11 1.3363709e-11
3.9773553e-11 5.6593983e-11 2.4471385e-11 2.5700865e-12 -1.9365749e-11 5.619869e-11 -4.3513786e-11 9.86861e-12
6.5537686e-11 -9.939773e-11 -2.234678e-11 1.529241e-10 -8.1684944e-11 8.3612596e-11 2.1761048e-12 1.1829206e-10
7.404667e-11 -1.4356304e-10 1.3730199e-10 1.0816154e-10 -7.231534e-11 6.2328506e-12 4.4787327e-11 -9.37429e-11
-7.2314044e-11 1.0711215e-11 -4.8435894e-11 -9.1914004e-11 2.7572146e-12 1.2319784e-10 8.996324e-11 8.131918e-11
1.0416451e-10 -3.4987263e-12 4.914274e-11 3.701933e-11 -1.0347292e-10 -4.795677e-11 3.2123375e-12 2.8714166e-12
2.7603534e-12 1.5098926e-12 2.920416e-12 6.6284448e-12 -1.5457551e-12 1.7632261e-12 7.1567327e-12 7.254286e-11
3.742699e-11 -1.4724918e-12 1.6433361e-13 1.1379938e-11 1.615756e-11 -1.8109871e-11 -1.1397966e-12 2.2166338e-11
-2.3408548e-11 -1.5456728e-11 -2.0084056e-11 -1.512083e-11 -6.908785e-12 -1.072088e-11 -7.859553e-12 -2.6784618e-12
-6.7106125e-12 5.584507e-11 -8.160062e-11 -4.3210552e-10 -4.3366654e-11 -2.6320576e-10 -6.294798e-11 6.786045e-11
6.361361e-11 -5.2312643e-10 -1.2319802e-10 1.1875885e-10 2.7253413e-10 -6.0124843e-12 8.102065e-11 2.022907e-12
-1.1316317e-10 1.3111344e-10 3.6154735e-11 -6.5293985e-11 2.2442921e-10 2.829746e-10 -1.0075616e-10 1.8262683e-10
2.2159352e-10 -5.1770466e-11 1.4526336e-10 1.1302704e-10 -1.354753e-12 -1.40803e-12 -1.6870196e-12 -1.1355202e-12
-1.2047132e-12 -1.4316861e-12 -9.937664e-13 -1.1333517e-12 -1.3486752e-12 1.5564485e-12 1.4709506e-11 -2.6501355e-11
8.573508e-13 6.185824e-11 4.539133e-12 2.1564541e-13 3.941971e-11 1.5488387e-11 9.3066124e-11 -5.948366e-11
-2.3722338e-10 -1.8043466e-11 -5.1177663e-11 -1.09478026e-11 2.6102814e-11 -1.3322015e-11 1.07997075e-11 -9.241218e-12
7.771407e-12 7.4214704e-11 -6.756294e-12 1.5634053e-13 -2.3731688e-11 -4.461388e-12 -1.0363266e-11 1.3802856e-10
1.5233562e-10 -2.3540525e-10 -2.0754524e-10 1.972521e-10 -1.2358634e-10 -4.431623e-10 2.8349248e-11 -1.7698686e-11
-2.9983874e-10 4.3898057e-10 8.00209e-10 1.2941401e-09 4.014465e-10 6.5583794e-10 7.409426e-10 3.8979464e-10
3.2525618e-10 6.078322e-10 -2.5039557e-10 -3.6688808e-10 -5.663108e-10 -1.6273392e-10 -1.5293183e-10 -4.4356654e-10
-7.8458864e-11 -9.9841324e-12 -5.0565035e-10 2.2840381e-10 1.3029577e-10 2.6597896e-10 3.3880407e-10 9.3578825e-11
1.4558652e-10 2.128208e-10 -2.589954e-12 2.800302e-11 -4.7043366e-11 1.7037916e-10 3.4500122e-10 -1.4908305e-11
